nmr_predictor/nmr_predictor/model-e8_7-re0_127-r20_92.pt (torch, 486507 bytes, 59 tensors)

node_normal.module.weight f4 [9]
1.0579878 0.88145316 0.874929 1.098438 1.0490764 0.84007764 0.98038536 1.0429325
1.1472871
00000000: 256c 873f eaa6 613f 59fb 5f3f 9e99 8c3f
00000010: 2348 863f 540f 573f 89fa 7a3f d07e 853f
00000020: 4eda 923f

node_normal.module.bias f4 [9]
-0.08745393 -0.032393165 0.0074910047 -0.024669645 -0.050609913 -0.033257905 -0.00017834852 -0.05659917
0.028573997
00000000: 0c1b b3bd b2ae 04bd 1a77 f53b ff17 cabc
00000010: 574c 4fbd 7139 08bd 1103 3bb9 88d4 67bd
00000020: 0414 ea3c

node_normal.module.running_mean f4 [9]
4.8002915 -0.00041707166 2.1389735e-14 2.2624812 1.9483548 0.25025573 0.14788988 1.6256886
3.1929185
00000000: fd9b 9940 69aa dab9 5fa9 c028 7ecc 1040
00000010: b163 f93f 8521 803e 7270 173e 9016 d03f
00000020: c758 4c40

node_normal.module.running_var f4 [9]
19.481615 0.0123627335 4.277947e-14 1.921541 3.0464413 0.18724412 0.12524612 0.3575781
4.546577
00000000: 59da 9b41 108d 4a3c 5fa9 4029 0ef5 f53f
00000010: e5f8 4240 ecbc 3f3e 8540 003e 7a14 b73e
00000020: 8f7d 9140

edge_normal.module.weight f4 [5]
1.0 1.0 1.0 1.0 1.0
00000000: 0000 803f 0000 803f 0000 803f 0000 803f
00000010: 0000 803f

edge_normal.module.bias f4 [5]
0.0 0.0 0.0 0.0 0.0
00000000: 0000 0000 0000 0000 0000 0000 0000 0000
00000010: 0000 0000

edge_normal.module.running_mean f4 [5]
0.0 0.0 0.0 0.0 0.0
00000000: 0000 0000 0000 0000 0000 0000 0000 0000
00000010: 0000 0000

edge_normal.module.running_var f4 [5]
1.0 1.0 1.0 1.0 1.0
00000000: 0000 803f 0000 803f 0000 803f 0000 803f
00000010: 0000 803f

meta1.edge_model.edge_mlp.0.weight f4 [32, 23]
0.31350687 -0.036379132 0.014720814 0.15447639 0.17090763 0.07697621 0.12794165 0.1287531
0.12761891 -0.26188532 0.16965677 0.13997474 -0.10670048 -0.17737289 -0.23852476 -0.21310857
-0.26282814 0.035635214 -0.10331724 -0.16590321 0.0052311835 0.28629652 -0.025264543 0.21671264
-0.1608445 0.15570411 0.10096495 0.056440815 -0.21864054 0.1156882 0.27496952 -0.23521802
-0.13376473 -0.055565152 0.084921785 0.0056822044 0.21186936 0.10963887 0.16152681 0.19263354
-0.09263718 -0.10215138 0.26344302 0.02365873 -0.2647648 0.019072713 -0.027923176 -0.12734409
0.15383628 0.041993633 0.19517015 -0.011240989 -0.06921181 0.14851655 0.027147802 -0.015455314
0.00091512833 0.0054965382 -0.27348483 0.06796726 -0.074046396 0.26864225 -0.14042799 -0.018541925
0.16013594 0.21817656 -0.1056822 -0.361615 -0.2109815 0.22874136 -0.03643868 0.03615913
-0.11840432 -0.033032972 0.071212746 -0.036254812 0.13889562 0.30318925 -0.0012476698 0.07619494
0.110243455 -0.10887271 -0.17942713 0.019551395 0.039714005 -0.18851829 -0.17614895 0.08273341
-0.12115498 0.32026565 -0.51885074 0.076793656 -0.2571032 0.102067605 -0.18738289 0.05123892
0.1315813 -0.017473225 -0.07457948 -0.1075962 0.047690015 0.08799142 0.10120972 0.00040802607
0.120283455 0.18257019 -0.1829642 0.2320688 0.13845275 -0.2524031 -0.09226126 -0.026981056
-0.3324359 -0.11713707 -0.03535177 0.003328922 -0.17127432 0.0024795523 -0.027433816 0.078893796
0.18759017 -0.20405032 -0.01628362 0.03277381 0.11828488 0.019833948 -0.06690117 -0.2275735
0.06877738 -0.05184414 0.17141537 -0.02028537 0.049239367 0.005277185 0.08323878 -0.123372816
-0.36518574 0.4237612 -0.046470236 0.044680815 -0.043522205 0.01099082 0.13718957 0.08475503
-0.105090566 -0.04453859 0.34910274 0.11403124 -0.23602016 -0.03839337 -0.083142385 -0.049701016
0.024570966 0.07446195 -0.192889 0.1927466 0.12924364 -0.22937602 0.2247209 0.27901104
0.2423012 -0.06098504 0.018674538 0.02768557 -0.04788684 0.09788079 0.04957929 -0.0696012
0.121713094 0.3367811 0.011798746 0.041865148 0.16845323 0.13193539 -0.17962192 -0.12201313
-0.25806886 0.10867653 -0.29424265 0.042734474 0.15210788 0.19294363 0.35804042 -0.029546194
-0.05878993 -0.16102971 -0.19912381 0.12871799 0.20871212 0.07963066 0.026860217 0.039996315
0.05498373 -0.028681938 0.04161172 0.033880048 0.18741775 -0.12481653 0.16054711 -0.2699714
0.034516536 0.06660551 -0.17514257 -0.11034819 0.13423748 0.25296578 -0.07408429 0.119690984
-0.069879785 -0.11501646 0.012306635 0.059876673 0.11441044 -0.094075374 0.11534191 -0.23777573
0.101261236 0.02920047 0.001442306 0.006925058 -0.062157564 0.026372828 0.18480225 0.13534877
0.14512111 -0.13652736 0.22371642 0.022012612 -0.40484607 -0.025168344 0.12877737 -0.14086802
-0.11501038 -0.013195674 0.045733042 0.14224115 0.12696724 0.05640017 -0.2225134 -0.12913772
0.04572954 0.138853 -0.37858874 -0.01582573 -0.22128423 -0.024343867 0.06961468 0.15707007
-0.07728521 -0.19055949 -0.12426835 -0.24645135 -0.19331577 0.30221993 0.11360111 0.11846181
00000000: f983 a03e 4902 15bd 922f 713c 0f2f 1e3e
00000010: 6902 2f3e b4a5 9d3d 2303 033e dad7 033e
00000020: 88ae 023e d515 86be 81ba 2d3e 8a55 0f3e
00000030: c885 dabd 3da1 35be d63f 74be 2239 5abe
00000040: 6991 86be 3bf6 113d fd97 d3bd 88e2 29be
00000050: 596a ab3b 7595 923e 96f7 cebc ebe9 5d3e
00000060: 6cb4 24be e670 1f3e b6c6 ce3d 7c2e 673d
00000070: 4ee3 5fbe efed ec3d cec8 8c3e fedc 70be
00000080: 9ff9 08be 4998 63bd 79eb ad3d c931 ba3b
00000090: 48f4 583e 588a e03d 4967 253e ba41 453e
000000a0: 90b8 bdbd be34 d1bd 01e2 863e f4cf c13c
000000b0: 408f 87be 613e 9c3c 25bf e4bc 7d66 02be
000000c0: 4287 1d3e 8401 2c3d afda 473e 202c 38bc
000000d0: ecbe 8dbd b914 183e 1165 de3c 4938 7dbc
000000e0: 39e5 6f3a 4e1c b43b 3406 8cbe 6b32 8b3d
000000f0: a3a5 97bd 7a8b 893e 5bcc 0fbe 3ce5 97bc
00000100: adfa 233e ad69 5f3e e96f d8bd 9a25 b9be
00000110: 890b 58be 2d3b 6a3e ba40 15bd 991b 143d
00000120: f77d f2bd 954d 07bd fdd7 913d ed7f 14bd
00000130: a73a 0e3e 9f3b 9b3e da88 a3ba 180c 9c3d
00000140: 52c7 e13d a8f8 debd bfbb 37be 3f2a a03c
00000150: 27ab 223d f00a 41be 6460 34be 2270 a93d
00000160: 1a20 f8bd dcf9 a33e 67d3 04bf fe45 9d3d
00000170: 08a3 83be d208 d13d 4de1 3fbe e7df 513d
00000180: 40bd 063e 0224 8fbc 20bd 98bd 665b dcbd
00000190: 9b56 433d d834 b43d 0b47 cf3d 55ec d539
000001a0: 2c57 f63d aef3 3a3e f85a 3bbe 72a3 6d3e
000001b0: 8fc6 0d3e fb3a 81be 79f3 bcbd 6007 ddbc
000001c0: 0a35 aabe 8fe5 efbd 05cd 10bd 0b2a 5a3b
000001d0: 8962 2fbe fc7f 223b e2bc e0bc 1293 a13d
000001e0: a317 403e 91f2 50be 3a65 85bc d53d 063d
000001f0: 583f f23d ce7a a23c 7b03 89bd 0709 69be
00000200: 28db 8c3d 855a 54bd 8387 2f3e 812d a6bc
00000210: 38af 493d 3cec ac3b 1879 aa3d e3aa fcbd
00000220: a0f9 babe 3af7 d83e 9357 3ebd 3b03 373d
00000230: 5744 32bd d712 343c 6c7b 0c3e 0c94 ad3d
00000240: b939 d7bd 196e 36bd 98bd b23e 3689 e93d
00000250: 45af 71be 5e42 1dbd 8e46 aabd 4b93 4bbd
00000260: 0d49 c93c 827f 983d b284 45be 5d5f 453e
00000270: 7258 043e 8ce1 6abe 3c1d 663e 89da 8e3e
00000280: ce1d 783e 73cb 79bd 58fb 983c d9cc e23c
00000290: fe24 44bd b975 c83d a713 4b3d 138b 8ebd
000002a0: b744 f93d 936e ac3e 874f 413c ca7a 2b3d
000002b0: 017f 2c3e 121a 073e cfee 37be 05e2 f9bd
000002c0: 9a21 84be cd91 de3d f9a6 96be 580a 2f3d
000002d0: 2bc2 1b3e 0493 453e 1351 b73e dc0a f2bc
000002e0: b6cd 70bd f9e4 24be 1de7 4bbe a6ce 033e
000002f0: a1b8 553e 6615 a33d f509 dc3c 2dd3 233d
00000300: 9f36 613d 62f6 eabc 0d71 2a3d cec5 0a3d
00000310: 70ea 3f3e cf9f ffbd 7666 243e b139 8abe
00000320: 3661 0d3d 7868 883d 9358 33be 3bfe e1bd
00000330: 8d75 093e bb84 813e 81b9 97bd 8c20 f53d
00000340: 221d 8fbd c08d ebbd c5a1 493c 3e41 753d
00000350: 0550 ea3d 97aa c0bd 6138 ec3d 7b7b 73be
00000360: 0d62 cf3d d335 ef3c c20b bd3a 99eb e23b
00000370: ee98 7ebd d40b d83c cd3c 3d3e de98 0a3e
00000380: a19a 143e d4cd 0bbe eb15 653e cb53 b43c
00000390: fc47 cfbe d82d cebc 37de 033e b53f 10be
000003a0: 908a ebbd ab32 58bc 9252 3b3d aaa7 113e
000003b0: b303 023e dd03 673d 8dda 63be ae3c 04be
000003c0: e64e 3b3d 7b2f 0e3e 62d6 c1be f6a4 81bc
000003d0: 5598 62be ca6c c7bc 2492 8e3d fad6 203e
000003e0: b547 9ebd 0722 43be 6880 febd be5d 7cbe
000003f0: 92f4 45be 92bc 9a3e b3a7 e83d 1b9c f23d

meta1.edge_model.edge_mlp.0.bias f4 [32]
-0.14828028 0.012201799 -0.114432536 0.2182002 0.072296806 0.0015068311 -0.08837996 -0.09595785
0.13458134 0.09587619 0.089089215 -0.11284449 -0.021458076 -0.12582532 0.23927273 0.01943291
-0.032621123 0.025433317 -0.21033499 -0.02855345 0.13450064 -0.20340392 0.050003063 0.08459183
-0.02807277 0.010200434 -0.17219882 0.08536981 -0.22502564 0.2390495 0.20206353 -0.14057249
00000000: c9d6 17be 0eea 473c 9b5b eabd e06f 5f3e
00000010: 5910 943d dd80 c53a 8d00 b5bd 8d85 c4bd
00000020: b1cf 093e bc5a c43d 6874 b63d 031b e7bd
00000030: d9c8 afbc 5ad8 00be e903 753e c431 9f3c
00000040: ba9d 05bd 8859 d03c 0e62 57be ede8 e9bc
00000050: 89ba 093e 1e49 50be 03d0 4c3d 7b3e ad3d
00000060: def8 e5bc b91f 273c e354 30be 5ed6 ae3d
00000070: 1f6d 66be 64c9 743e bee9 4e3e 3cf2 0fbe

meta1.edge_model.edge_mlp.2.weight f4 [128, 32]
0.0685194 0.09821975 0.025602031 -0.07440899 0.10608452 -0.073033474 -0.18608797 -0.2106127
0.023362096 -0.0027924571 0.13415688 -0.09875131 0.19718477 0.07169741 -0.040605195 -0.22345598
0.12766701 0.1246601 0.16636205 0.10887692 0.04403052 0.15173413 -0.1955493 -0.12652962
0.074635625 0.04594689 0.024932422 -0.1442582 0.0015086464 0.066837214 -0.14875066 -0.17443384
-0.14658076 0.01599731 0.1051213 -0.08163108 0.044770297 0.23283233 -0.0033471212 -0.07332923
0.18095519 -0.074378625 0.0064774095 -0.23425063 0.019275721 0.22759861 -0.047291543 -0.069285765
-0.109763086 0.079830706 -0.222003 -0.16464916 0.123248674 0.063347235 -0.078969106 -0.119744085
0.20131621 0.018593676 0.2241781 0.052876152 0.05339285 0.13723755 -0.13848092 -0.04512201
0.20755292 -0.21047628 0.09194044 0.0783949 -0.12522338 -0.18342839 0.06954433 0.061059523
0.056637555 0.14659545 -0.3098573 0.04001277 -0.1031711 -0.13003431 0.06210668 0.22916768
-0.12922499 0.019969817 -0.011496911 -0.08653584 0.15011527 -0.09672114 0.107949436 0.16068065
-0.051071893 -0.10745436 -0.23787916 0.07236898 0.15377995 -0.03683955 -0.030407459 0.10109351
0.20010234 -0.1689735 -0.17623027 -0.07412385 -0.0181821 0.056722213 0.20954932 -0.17140177
0.014794518 0.10842222 -0.04586858 -0.052709512 0.20773964 -0.1467209 -0.15693308 0.086194105
0.17592923 0.12889636 -0.1259532 -0.10408002 0.24599953 -0.060783412 0.20287341 -0.09955322
0.18543835 0.031075962 -0.26336938 0.17617719 0.10251526 0.010075685 -0.07248076 0.23045972
0.22511439 -0.18163835 -0.22562215 0.070735864 0.15252262 -0.069839254 0.046792205 -0.104005314
0.1379311 -0.06266924 -0.26177332 -0.07118742 0.09533671 -0.21722297 0.1059522 0.15982024
0.07482583 0.023113716 0.18962775 0.15661195 0.09744227 -0.1713593 0.10823073 0.20142639
-0.016417308 0.068101086 -0.119595505 0.07392851 -0.014234766 0.11828467 -0.09949817 0.20595814
-0.15896797 0.07067697 0.16877678 0.10935318 0.18109427 0.2849417 -0.093844645 -0.059395634
-0.11743194 0.007477027 0.005618864 0.06525352 0.18572618 0.114492126 0.04458392 -0.29591683
-0.11289543 0.10730279 0.12801757 -0.10133736 -0.11208081 0.12925686 -0.21345459 0.05329174
-0.013723415 0.038930632 0.041596852 -0.17395242 0.023163198 -0.097705945 0.027498526 -0.047643468
0.06190774 -0.07575266 -0.2777172 -0.11315392 -0.09574966 0.104130864 0.26589125 -0.14158171
0.20484681 -0.06854901 -0.05206705 -0.23238474 -0.1217599 0.119451895 -0.12468791 0.007239228
-0.18242155 -0.13241911 -0.15997015 -0.045977905 -0.06292982 0.08388929 -0.074852295 0.005268633
0.062218625 -0.0008306915 0.012175079 0.17750323 -0.18597016 -0.22072455 0.006775665 0.09410608
0.119009934 0.0014113529 -0.032804593 0.09410924 0.21861427 0.05073246 -0.08037423 0.16200522
0.08033667 0.07521477 -0.037205514 -0.055487547 0.014981912 0.060267277 -0.025601836 0.07641807
0.11990989 0.15575841 0.0038920983 0.15554315 0.10314331 -0.08777164 0.0994222 0.2987247
0.017777989 -0.088048294 0.19140615 -0.15961675 0.34531128 0.125745 -0.09781213 -0.09695483
00000000: e653 8c3d 7027 c93d 5abb d13c be63 98bd
00000010: d742 d93d 9392 95bd d88d 3ebe dbaa 57be
00000020: de61 bf3c a801 37bb 6c60 093e 203e cabd
00000030: ceea 493e 17d6 923d a251 26bd a5d1 64be
00000040: 24bb 023e cb4d ff3d d05a 2a3e ddfa de3d
00000050: 5959 343d 3160 1b3e 133e 48be fb90 01be
00000060: 90da 983d ce32 3c3d 143f cc3c 6cb8 13be
00000070: c6bd c53a f3e1 883d 1852 18be c99e 32be
00000080: 4419 16be ca0c 833c d649 d73d 322e a7bd
00000090: 0f61 373d 996b 6e3e 605b 5bbb a32d 96bd
000000a0: 514c 393e d253 98bd 7340 d43b 66df 6fbe
000000b0: 1ee8 9d3c 9c0f 693e c7b4 41bd b2e5 8dbd
000000c0: 78cb e0bd 487e a33d c154 63be ca99 28be
000000d0: cd69 fc3d 32bc 813d 8eba a1bd 633c f5bd
000000e0: d625 4e3e c451 983c f28e 653e aa94 583d
000000f0: 76b2 5a3d 0088 0c3e f1cd 0dbe dbd1 38bd
00000100: c188 543e 1887 57be 454b bc3d 818d a03d
00000110: 8f3a 00be a7d4 3bbe 426d 8e3d 8d19 7a3d
00000120: c8fc 673d 1e1d 163e 9ea5 9ebe 6ee4 233d
00000130: 5f4b d3bd b727 05be 9363 7e3d efaa 6a3e
00000140: 8e53 04be be97 a33c 8a5d 3cbc b439 b1bd
00000150: d1b7 193e bc15 c6bd 9814 dd3d 7889 243e
00000160: c330 51bd 0811 dcbd 9896 73be 3036 943d
00000170: 7e78 1d3e 11e5 16bd 1019 f9bc 1d0a cf3d
00000180: a1e7 4c3e 6407 2dbe b575 34be 3fce 97bd
00000190: a1f2 94bc 8d55 683d 1994 563e f283 2fbe
000001a0: b564 723c 780c de3d b1e0 3bbd eee5 57bd
000001b0: b3b9 543e 013e 16be 11b3 20be 8986 b03d
000001c0: cb26 343e 68fd 033e e0f9 00be e827 d5bd
000001d0: 4de7 7b3e 07f8 78bd 0cbe 4f3e 8fe2 cbbd
000001e0: 8de3 3d3e 0493 fe3c 5ad8 86be cb67 343e
000001f0: 85f3 d13d 7c14 253c cb70 94bd a2fd 6b3e
00000200: 6384 663e 67ff 39be 7e09 67be f7dd 903d
00000210: e42e 1c3e e207 8fbd 2fa9 3f3d bd00 d5bd
00000220: cf3d 0d3e bb58 80bd 2707 86be b6ca 91bd
00000230: e53f c33d b36f 5ebe 78fd d83d eba7 233e
00000240: 493e 993d fa58 bd3c c72d 423e e25e 203e
00000250: d08f c73d d078 2fbe 13a8 dd3d b842 4e3e
00000260: 977d 86bc 9578 8b3d 7dee f4bd d567 973d
00000270: f038 69bc 3c3f f23d b2c5 cbbd b1e6 523e
00000280: 80c8 22be 16bf 903d d2d3 2c3e 8ff4 df3d
00000290: c770 393e e1e3 913e 9f31 c0bd d648 73bd
000002a0: 2880 f0bd d901 f53b 731e b83b a3a3 853d
000002b0: 012f 3e3e d97a ea3d a19d 363d 6982 97be
000002c0: b835 e7bd 91c1 db3d 0a17 033e f689 cfbd
000002d0: a08a e5bd e95b 043e d793 5abe 7148 5a3d
000002e0: 2dd8 60bc ba75 1f3d 7661 2a3d 9520 32be
000002f0: bfc0 bd3c 0e1a c8bd 9744 e13c cc25 43bd
00000300: f892 7d3d 3624 9bbd f330 8ebe 3ebd e7bd
00000310: 6618 c4bd 9042 d53d e622 883e ccfa 10be
00000320: 5dc3 513e 6c63 8cbd 4244 55bd 44f6 6dbe
00000330: 415d f9bd 32a3 f43d 605c ffbd 0c37 ed3b
00000340: b7cc 3abe e098 07be 37cf 23be 5453 3cbd
00000350: 59e1 80bd 26ce ab3d 294c 99bd 7fa4 ac3b
00000360: f5d8 7e3d c3c2 59ba fc79 473c 68c3 353e
00000370: f66e 3ebe 9e05 62be 6606 de3b b0ba c03d
00000380: 7bbb f33d 25fd b83a 1c5e 06bd 58bc c03d
00000390: 6bdc 5f3e d7cc 4f3d 3f9b a4bd b2e4 253e
000003a0: 8d87 a43d 340a 9a3d cf64 18bd e946 63bd
000003b0: b276 753c d2da 763d f1ba d1bc 1481 9c3d
000003c0: 5193 f53d 227f 1f3e 9312 7f3b b446 1f3e
000003d0: cd3c d33d 9ec1 b3bd de9d cb3d 72f2 983e
000003e0: 25a3 913c aa52 b4bd f9ff 433e 9372 23be
000003f0: a4cc b03e 4cc3 003e ba51 c8bd 4190 c6bd

meta1.edge_model.edge_mlp.2.bias f4 [128]
0.11310502 0.06083879 -0.031685345 -0.037849832 -0.07903307 0.0874568 -0.105583936 0.13726692
-0.09150917 -0.1458252 -0.13924389 0.0017449302 0.13824438 -0.023630556 -0.13040583 -0.1318118
0.060255226 0.1573332 0.09276367 -0.078383625 -0.1265251 -0.10762527 -0.11063004 -0.025296452
-0.096557595 0.16753584 -0.016482947 -0.14289902 -0.023980277 -0.1194375 -0.102892056 0.05819624
-0.1392044 0.18277152 -0.053183064 0.053961903 0.18347913 -0.048559412 -0.014008242 0.1786171
0.016288068 0.0024882765 -0.014862425 0.034223914 0.06446414 0.011041924 0.15712355 0.05661775
0.041406438 0.051258557 -0.11080132 -0.011698345 -0.098016046 0.034288794 0.11442348 -0.12928276
0.021941109 -0.061723273 -0.16701677 0.09761967 -0.094713956 0.10683373 -0.10861867 0.15032557
0.16434367 0.06344136 0.093399 -0.02363998 -0.07015286 0.1575178 -0.124754176 0.044461433
0.13804695 -0.045540042 -0.008760696 0.047948197 0.13457863 -0.10686025 0.13197999 0.10048951
0.028085604 -0.046520546 0.009462493 0.21732481 -0.111842856 0.13808446 0.018797152 -0.1337595
-0.019823745 0.20145343 0.08725334 0.08659534 -0.13144223 0.03884446 0.06855089 0.111805566
0.031930763 -0.10984648 0.13990328 0.0932521 -0.038754735 0.027690833 0.18341787 0.011739687
0.21772388 0.15458232 -0.017889297 0.092649825 -0.1363336 -0.11990945 0.087541066 0.037123162
0.0032902288 0.18269901 -0.1180564 0.06837638 0.077997155 0.11198175 -0.036628254 0.08762916
-0.03246712 -0.12749569 -0.109901495 -0.1305921 -0.0892172 -0.08336985 -0.052923255 -0.12249119
00000000: 9ba3 e73d 1832 793d 7ec8 01bd 6d08 1bbd
00000010: 17dc a1bd 8d1c b33d 643c d8bd b38f 0c3e
00000020: 2969 bbbd 3453 15be f395 0ebe 24b6 e43a
00000030: ef8f 0d3e de94 c1bc 1b89 05be acf9 06be
00000040: 2fce 763d f41b 213e e1fa bd3d 9887 a0bd
00000050: cc8f 01be a36a dcbd 0192 e2bd 813a cfbc
00000060: fdbf c5bd 848e 2b3e 3f07 87bc 1f54 12be
00000070: 4972 c4bc a69b f4bd 12b9 d2bd 2e5f 6e3d
00000080: 998b 0ebe 7528 3b3e 7cd6 59bd 2807 5d3d
00000090: f4e1 3b3e 3ce6 46bd d382 65bc 67e7 363e
000000a0: 8e6e 853c 5a12 233b 8781 73bc 602e 0c3d
000000b0: c605 843d 30e9 343c ffe4 203e 04e8 673d
000000c0: cc99 293d 7ef4 513d cdeb e2bd 6aaa 3fbc
000000d0: a3bc c8bd 6872 0c3d dc56 ea3d b362 04be
000000e0: d7bd b33c 8bd1 7cbd 7206 2bbe d2ec c73d
000000f0: 64f9 c1bd a5cb da3d 7773 debd f2ee 193e
00000100: b549 283e 8bed 813d fa47 bf3d a2a8 c1bc
00000110: 4dac 8fbd 594c 213e 1e7f ffbd 311d 363d
00000120: 2e5c 0d3e 3288 3abd 0689 0fbc 5465 443d
00000130: fbce 093e 8cd9 dabd c325 073e 72cd cd3d
00000140: c813 e63c 548c 3ebd 9208 1b3c 658a 5e3e
00000150: de0d e5bd 0366 0d3e 7cfc 993c 40f8 08be
00000160: 6865 a2bc cf49 4e3e e1b1 b23d e658 b13d
00000170: cb98 06be 5e1b 1f3d 6964 8c3d 51fa e43d
00000180: d5c9 023d 31f7 e0bd ce42 0f3e f5fa be3d
00000190: 49bd 1ebd e3d7 e23c e5d1 3b3e d157 403c
000001a0: 02f3 5e3e d44a 1e3e 938c 92bc 31bf bd3d
000001b0: 099b 0bbe 1693 f5bd bb48 b33d 750e 183d
000001c0: e1a0 573b 7315 3b3e 8ec7 f1bd ea08 8c3d
000001d0: f9bc 9f3d b056 e53d 8207 16bd eb76 b33d
000001e0: 3efc 04bd 3b8e 02be 0914 e1bd efb9 05be
000001f0: 82b7 b6bd d0bd aabd 0ec6 58bd a9dc fabd

meta1.node_model.node_mlp_1.0.weight f4 [64, 137]
0.009220033 -0.044710852 -0.003965513 -0.19219746 -0.06577351 -0.047986325 0.09052812 0.010483593
-0.1278595 0.027437015 0.006739899 -0.043165952 0.14649358 -0.03275488 0.061281145 0.01035312
0.039555807 0.033900756 0.0063240346 -0.104737006 0.0020020865 0.025179062 0.089860246 0.11800634
-0.01195865 -0.065213256 0.09915622 -0.09993448 -0.06270382 0.12627678 0.002476413 -0.035332963
0.08930149 -0.03774423 0.04547194 0.12944067 -0.026472285 -0.00317442 -0.055496488 0.031474516
0.08566883 0.08328738 -0.11725094 -0.008858644 -0.018096441 -0.109278426 0.041001208 -0.018372064
0.090939395 0.16731669 0.04370482 0.10662719 0.011823154 0.07005379 0.22067067 0.0338363
-0.005991102 -0.085261695 0.17173782 -0.073921315 0.068470344 0.0977394 -0.077397175 0.056649543
0.018660137 0.0447624 0.0922567 -0.081959136 0.17153159 -0.051470663 -0.08493241 0.0017819082
-0.039089747 0.03585473 0.057217438 -0.024235958 0.04201696 0.16168118 0.16347085 -0.0076031233
0.25949442 -0.17184861 -0.01925952 -0.064515255 0.041546103 -0.018684024 0.18073493 -0.058779053
0.049882986 0.14000934 -0.049021177 -0.045769006 0.13755697 0.17498395 5.241976e-05 -0.09098505
0.09357359 -0.057184596 -0.10397909 0.060336817 -0.16108385 -0.08321708 -0.08213717 0.113486215
0.14424655 0.029993813 0.03536488 -0.14243661 -0.01881524 0.14351772 -0.09855169 0.05889692
0.0020402574 0.10315549 -0.026922502 -0.15917847 -0.049557075 -0.0261793 0.12681063 -0.11627612
0.005321534 -0.03215087 0.11479887 -0.00817968 0.069309376 -0.07775506 -0.09739858 -0.082365
0.020394364 0.08506398 0.08360325 -0.10729355 0.0009754011 0.107924305 -0.056459755 0.17546225
-0.12749492 0.10794165 -0.15310763 -0.04083149 0.015273184 0.098780565 0.01489808 0.022770263
-0.006387804 0.21184202 -0.034683686 -0.118012786 0.032949332 0.06742685 0.099577725 -0.032075066
0.12068844 0.029459618 0.060062416 0.02976149 -0.01855618 0.05536206 -0.035311624 -0.069874965
-0.047018956 -0.07978432 0.02985291 0.06723101 -0.0043698726 0.01536839 -0.0051418305 -0.15851319
-0.119581 0.10621163 0.07364777 0.077452034 0.017758613 0.06595036 -0.074472524 -0.19984215
0.0400625 0.024679977 -0.08536941 0.19089864 -0.009587253 0.056807533 0.29838088 0.024107324
-0.10113719 -0.028074564 -0.03275501 -0.012468787 -0.0039645564 0.04819239 0.020503217 0.07536572
-0.01480111 0.02432861 0.086788036 0.0118278805 0.13852093 0.035961308 0.032385595 -0.101129115
0.06914887 -0.010000886 -0.10221286 0.062089335 -0.05277566 -0.085578784 0.011713808 0.16852479
-0.08974612 0.07519304 0.08930276 -0.005674499 0.0643381 0.01175579 0.071877286 -0.07250568
-0.036325652 0.035426248 -0.1674512 -0.13028836 0.03467082 0.12487576 0.013442007 0.093991645
-0.14955701 -0.0062893834 0.058030773 -0.05390951 0.15076312 0.048451066 0.0015669619 8.961724e-05
-0.11475327 0.009454213 -0.12829706 -0.07145672 0.022216244 -0.09865712 0.0642206 0.052505795
0.018173333 -0.022820275 0.111432254 0.026250873 -0.041727945 0.08184428 -0.1171832 0.024818761
0.007830742 0.13170943 0.06817692 -0.035714474 0.12913159 -0.00504172 -0.025345495 0.058328263
00000000: 9f0f 173c ba22 37bd 22f1 81bb 69cf 44be
00000010: 43b4 86bd 4f8d 44bd cf66 b93d 60c3 2b3c
00000020: 9aed 02be 97c3 e03c 5fda dc3b c8ce 30bd
00000030: 6a02 163e fb29 06bd f001 7b3d 22a0 293c
00000040: 4505 223d 85db 0a3d d939 cf3b 5b80 d6bd
00000050: 7035 033b 5244 ce3c a608 b83d 4fad f13d
00000060: 37ee 43bc 878e 85bd 6b12 cb3d 73aa ccbd
00000070: dc6a 80bd b34e 013e 514b 223b 4cb9 10bd
00000080: b3e3 b63d b299 1abd c940 3a3d 188c 043e
00000090: 68dc d8bc ee09 50bb 4950 63bd 6ceb 003d
000000a0: 2473 af3d 9392 aa3d 4321 f0bd d923 11bc
000000b0: fd3e 94bc 5ecd dfbd e2f0 273d 0381 96bc
000000c0: 6f3e ba3d 1155 2b3e d303 333d 5b5f da3d
000000d0: e7b5 413c 5d78 8f3d 7ef7 613e ef97 0a3d
000000e0: 0251 c4bb af9d aebd 0adc 2f3e 0f64 97bd
000000f0: 2e3a 8c3d 982b c83d 6982 9ebd 5a09 683d
00000100: 25dd 983c c758 373d 15f1 bc3d 31da a7bd
00000110: faa5 2f3e e7d2 52bd 0bf1 adbd eb8e e93a
00000120: 921c 20bd 69dc 123d d55c 6a3d 7d8a c6bc
00000130: fa19 2c3d c08f 253e e764 273e 9f23 f9bb
00000140: 74dc 843e 15f9 2fbe 24c6 9dbc 9320 84bd
00000150: 3f2c 2a3d 3d0f 99bc 9412 393e 4ec2 70bd
00000160: 1a52 4c3d 9c5e 0f3e 6eca 48bd 4878 3bbd
00000170: bcdb 0c3e fe2e 333e 4add 5b38 5f56 babd
00000180: 83a3 bf3d 653a 6abd fdf2 d4bd bd23 773d
00000190: 2af3 24be b76d aabd 8837 a8bd 766b e83d
000001a0: 5eb5 133e 96b5 f53c c4da 103d e7da 11be
000001b0: 6b22 9abc 4ff6 123e 78d5 c9bd e63d 713d
000001c0: d7b5 053b 2f43 d33d 948c dcbc aeff 22be
000001d0: 5cfc 4abd f975 d6bc a5da 013e 2d22 eebd
000001e0: 4360 ae3b a1b0 03bd ac1b eb3d 1104 06bc
000001f0: 13f2 8d3d 0b3e 9fbd e878 c7bd fbae a8bd
00000200: 1512 a73c 0636 ae3d 2e38 ab3d b9bc dbbd
00000210: 0fb2 7f3a 6b07 dd3d 5842 67bd 60ac 333e
00000220: 078e 02be 8310 dd3d 3fc8 1cbe ec3e 27bd
00000230: 603c 7a3c 774d ca3d 1417 743c b488 ba3c
00000240: c950 d1bb 1ded 583e 7b10 0ebd b0b0 f1bd
00000250: e1f5 063d 1717 8a3d 68ef cb3d 2561 03bd
00000260: 802b f73d 4c55 f13c 0204 763d 5ece f33c
00000270: 2103 98bc 54c3 623d eca2 10bd 9b1a 8fbd
00000280: f396 40bd f665 a3bd 178e f43c 69b0 893d
00000290: 2631 8fbb b3cb 7b3c cd7c a8bb 4851 22be
000002a0: e2e6 f4bd 7c85 d93d a4d4 963d 2c9f 9e3d
000002b0: 837a 913c fb10 873d 0d85 98bd 6ca3 4cbe
000002c0: 9318 243d aa2d ca3c 28d6 aebd ef7a 433e
000002d0: db13 1dbc 04af 683d 61c5 983e b97c c53c
000002e0: 0421 cfbd a1fc e5bc 1e2a 06bd e249 4cbc
000002f0: 1ce9 81bb 6265 453d 5df6 a73c 5859 9a3d
00000300: 5b80 72bc cb4c c73c edbd b13d bac9 413c
00000310: 6ed8 0d3e 2a4c 133d c2a6 043d c81c cfbd
00000320: ec9d 8d3d c2da 23bc fa54 d1bd 6351 7e3d
00000330: 4a2b 58bd ee43 afbd 46eb 3f3c c391 2c3e
00000340: d0cc b7bd cffe 993d 5ee4 b63d 26f1 b9bb
00000350: b2c3 833d 5b9b 403c 6634 933d dc7d 94bd
00000360: 35ca 14bd 1d1b 113d 5478 2bbe 506a 05be
00000370: fd02 0e3d ddbe ff3d dd3b 5c3c b17e c03d
00000380: 7925 19be 2c17 cebb adb1 6d3d 38d0 5cbd
00000390: a661 1a3e a074 463d 8462 cd3a e4f0 bb38
000003a0: c303 ebbd d8e5 1a3c 4e60 03be e757 92bd
000003b0: d7fe b53c be0c cabd 1786 833d 5110 573d
000003c0: 3ee0 943c 96f1 babc 9836 e43d 120c d73c
000003d0: ecea 2abd f99d a73d bffd efbd b750 cb3c
000003e0: 834c 003c d6de 063e 57a0 8b3d 5749 12bd
000003f0: 123b 043e 0335 a5bb 5ba1 cfbc 9ee9 6e3d

meta1.node_model.node_mlp_1.0.bias f4 [64]
0.019201953 0.106310554 -0.027107121 0.06818426 -0.11262369 -0.058083586 -0.0033958065 -0.032854345
-0.042526077 -0.02357628 -0.063555084 -0.008032133 0.024079006 -0.045021836 -0.04553844 0.07644447
0.088471755 -0.019694125 0.08163709 -0.053118028 0.1069454 -0.02300833 -0.080334045 -0.04330889
-0.019935666 0.017206676 -0.024800843 0.026789784 0.09226462 -0.04200011 0.028266108 0.00443085
-0.04269158 -0.055769026 -0.010017695 0.098296545 -0.078378566 0.0614943 0.045210663 -0.08876487
-0.08705331 -0.06456183 -0.07362356 -0.04283696 0.0069078263 0.10771639 -0.11244656 -0.009202275
-0.07793067 0.0593426 -0.10872013 0.043288764 -0.086827815 -0.005618077 0.031247685 0.033540208
-0.09339471 0.03593423 0.09825121 0.054671157 -0.022300035 -0.0124844145 0.001183184 -0.089610696
00000000: 6a4d 9d3c 59b9 d93d c10f debc 30a4 8b3d
00000010: 40a7 e6bd 0ee9 6dbd 2e8c 5ebb 4792 06bd
00000020: d32f 2ebd 0b23 c1bc 2b29 82bd 3599 03bc
00000030: 5641 c53c d168 38bd 8486 3abd eb8e 9c3d
00000040: ae30 b53d 9355 a1bc 5931 a73d 4a92 59bd
00000050: 3106 db3d f77b bcbc 2d86 a4bd aa64 31bd
00000060: 1f50 a3bc 04f5 8c3c 232b cbbc 4076 db3c
00000070: 3cf5 bc3d 4f08 2cbd 538e e73c aa30 913b
00000080: 5edd 2ebd 106e 64bd 4221 24bc b34f c93d
00000090: f184 a0bd 72e1 7b3d d12e 393d 5bca b5bd
000000a0: 0149 b2bd fe38 84bd f3c7 96bd cf75 2fbd
000000b0: 0c5b e23b 699a dc3d 624a e6bd 24c5 16bc
000000c0: 1d9a 9fbd 3a11 733d a9a8 debd 8f4f 313d
000000d0: c8d2 b1bd d817 b8bb 25fb ff3c 7561 093d
000000e0: ba45 bfbd c52f 133d ee37 c93d ddee 5f3d
000000f0: 90ae b6bc 6e8b 4cbc 1115 9b3a d085 b7bd

meta1.node_model.node_mlp_1.2.weight f4 [64, 64]
-0.13853016 0.056088697 0.10445387 0.13019158 0.090110704 -0.00025517185 -0.10054227 0.03186185
-0.062496457 -0.03627903 -0.17471313 -0.13020326 -0.0177443 0.0684506 -0.040560182 0.046491966
-0.003929371 0.031280678 0.075986534 0.11372879 0.024410827 -0.12103412 -0.0061054975 -0.00986647
-0.13498901 -0.121303365 0.11177451 -0.08330805 0.09275375 -0.17197293 -0.011847265 -0.08704882
0.13559812 -0.014210174 -0.0064016143 -0.12564157 -0.032081943 0.10379078 0.12730812 -0.13133876
-0.0033535277 0.056366015 -0.15281291 -0.06361013 -0.017624479 0.07328537 0.00078777876 0.08838139
0.013879551 -0.0053877225 0.123653986 -0.12605451 -0.14424373 -0.025233854 -0.042972147 0.1012139
-0.019594532 -0.14639859 -0.023197904 0.11742873 -0.075552665 0.1309721 -0.03114125 -0.09357623
0.013096628 0.040678248 -0.080564566 -0.08973858 0.03137825 0.072175026 0.019195126 -0.07556694
0.17068999 0.087029755 0.1734316 -0.16945733 -0.026178267 -0.029845038 -0.058567997 -0.041075286
0.086280204 -0.042394742 0.07536284 0.058494434 -0.17617787 0.002373104 0.121892035 -0.014379598
-0.004086607 0.04671346 -0.12714888 -0.13091256 0.07474499 -0.021200193 -0.024219707 -0.11957993
-0.0396719 -0.03152257 -0.130952 0.13381818 -0.044563357 0.011390529 -0.09239058 0.09717577
0.04304488 -0.10468082 -0.12378455 0.10837658 -0.004409674 -0.052602313 0.0622101 -0.020031143
-0.014811587 -0.02816337 -0.13203599 0.022533135 0.03913616 -0.03142904 -0.047785703 -0.043176692
-0.10257717 0.14336088 -0.042959727 0.012483161 -0.030247036 0.07214079 0.061625734 0.06821923
0.087151036 0.1803778 0.030645965 0.15347444 -0.04600266 -0.09970134 -0.06266973 0.03899479
0.0588971 -0.021973334 -0.13783659 -0.014122862 -0.00578748 0.024906859 0.17747752 -0.0048820903
0.0507057 0.047267158 0.09833037 -0.07301865 0.103143156 -0.11745543 -0.04686995 0.043233156
0.117530756 0.107004106 -0.09871034 -0.098579146 0.06640295 -0.28913444 0.14138107 -0.112184286
-0.10672825 0.0810764 0.0733933 0.08228815 0.06658787 0.08196244 -0.052249268 -0.2548486
-0.103587 0.07532421 0.032971483 -0.07578026 0.10313034 0.030683534 -0.030710628 0.06981943
-0.0030135543 0.016799297 -0.04029252 0.16391279 -0.21470635 0.10258731 0.048482213 0.06159614
-0.11599426 0.059085034 0.021189772 0.15014808 -0.009295784 0.068855025 0.13028067 0.076221794
-0.10255923 0.06289432 -0.15185063 -0.09452102 -0.09925595 -0.07432745 0.06960367 -0.03343091
0.09359762 -0.010103531 0.09488514 -0.12919064 -0.050094653 -0.0020134836 0.07141113 -0.088632144
-0.072692886 0.03037271 -6.566892e-05 -0.15311319 0.09545377 0.01349451 -0.087721586 -0.16565326
0.12392382 0.085005544 -0.096616894 -0.19503434 0.0254168 -0.056723025 0.009899255 -0.18211357
-0.17285506 -0.07455371 -0.1105447 -0.047806486 -0.091843404 0.18914223 0.053891264 -0.0449051
-0.16896191 0.11249618 0.0034960245 -0.10231143 0.02648398 -0.002730532 -0.006485942 0.11841843
-0.054183375 0.0054208045 0.08539815 0.017097859 -0.026452105 -0.19778441 0.102632195 0.016800331
-0.10825191 0.17035867 0.07187114 -0.1006434 0.027603608 -0.11282587 -0.08253965 -0.12475792
00000000: dada 0dbe 43bd 653d e9eb d53d f150 053e
00000010: f68b b83d 96c8 85b9 1be9 cdbd 9281 023d
00000020: 49fc 7fbd 5299 14bd 00e8 32be 0154 05be
00000030: 7f5c 91bc d42f 8c3d 6f22 26bd 5c6e 3e3d
00000040: f4c1 80bb 2b20 003d d49e 9b3d a4ea e83d
00000050: 37f9 c73c bde0 f7bd a010 c8bb f9a6 21bc
00000060: 8f3a 0abe e66d f8bd 09ea e43d 699d aabd
00000070: aef5 bd3d ac19 30be 081b 42bc a746 b2bd
00000080: 3cda 0a3e cad1 68bc a2c4 d1bb 2fa8 00be
00000090: 5b68 03bd 4390 d43d 0f5d 023e ab7d 06be
000000a0: dcc6 5bbb 0de0 663d fd7a 1cbe 0746 82bd
000000b0: 3661 90bc a416 963d f082 4e3a 4d01 b53d
000000c0: 0e67 633c 7e8b b0bb 4d3e fd3d 6f14 01be
000000d0: a1b4 13be 3ab7 cebc 9003 30bd 3c49 cf3d
000000e0: b684 a0bc 83e9 15be 8809 bebc 797e f03d
000000f0: 5bbb 9abd 8d1d 063e ef1b ffbc e5a4 bfbd
00000100: 3d93 563c 3c9e 263d 09ff a4bd dcc8 b7bd
00000110: 7b86 003d 80d0 933d 193f 9d3c d7c2 9abd
00000120: 5bc9 2e3e a83c b23d 0e98 313e 3986 2dbe
00000130: ce73 d6bc 957d f4bc ffe4 6fbd 8f3e 28bd
00000140: adb3 b03d 1ca6 2dbd d557 9a3d dc97 6f3d
00000150: f967 34be 1486 1b3b 88a2 f93d 6898 6bbc
00000160: f2e8 85bb 9d56 3f3d 5133 02be f10d 06be
00000170: e713 993d 07ac adbc 6868 c6bc 53e6 f4bd
00000180: 017f 22bd cf1d 01bd 4818 06be a207 093e
00000190: 1188 36bd 579f 3a3c 4637 bdbd 1704 c73d
000001a0: d44f 303d e662 d6bd c182 fdbd 8af4 dd3d
000001b0: 077f 90bb 8675 57bd 05d0 7e3d 5a18 a4bc
000001c0: 4cac 72bc deb6 e6bc 7134 07be 6997 b83c
000001d0: 3d4d 203d bdbb 00bd f1ba 43bd 0bda 30bd
000001e0: fb13 d2bd 32cd 123e 8af6 2fbd 2c86 4c3c
000001f0: a2c8 f7bc 8dbe 933d 446b 7c3d 86b6 8b3d
00000200: 3e7c b23d f5b4 383e 3f0d fb3c 6728 1d3e
00000210: 496d 3cbd 3730 ccbd fd58 80bd 00b9 1f3d
00000220: 163e 713d 6c01 b4bc 0925 0dbe 9463 67bc
00000230: e7a4 bdbb 7809 cc3c abbc 353e f1f9 9fbb
00000240: c8b0 4f3d 359b 413d 6f61 c93d cd8a 95bd
00000250: b83c d33d 798c f0bd b4fa 3fbd 4015 313d
00000260: f7b3 f03d f824 db3d a628 cabd dde3 c9bd
00000270: 45fe 873d 6e09 94be 33c6 103e e0c0 e5bd
00000280: 5794 dabd 620b a63d 3a4f 963d b186 a83d
00000290: 395f 883d ecdb a73d 5403 56bd 847b 82be
000002a0: 6c25 d4bd 9443 9a3d 1b0d 073d ae32 9bbd
000002b0: 0036 d33d 095c fb3c db94 fbbc 7dfd 8e3d
000002c0: 0d7f 45bb ae9e 893c c509 25bd c1d8 273e
000002d0: fbdb 5bbe 4c19 d23d 4995 463d 3c4c 7c3d
000002e0: 668e edbd 2603 723d 2c96 ad3c 6bc0 193e
000002f0: 584d 18bc dd03 8d3d 4c68 053e 2c1a 9c3d
00000300: 930a d2bd bdce 803d bb7e 1bbe 3d94 c1bd
00000310: b446 cbbd fd38 98bd 5e8c 8e3d daee 08bd
00000320: 1cb0 bf3d 4889 25bc 2453 c23d 8d4a 04be
00000330: 0d30 4dbd a6f4 03bb 0040 923d c584 b5bd
00000340: 02e0 94bd 31d0 f83c bcb7 89b8 b4c9 1cbe
00000350: 447d c33d 1418 5d3c 60a7 b3bd 02a1 29be
00000360: c6cb fd3d 6317 ae3d 14df c5bd 15b7 47be
00000370: e536 d03c 6756 68bd 7c30 223c fb7b 3abe
00000380: eb00 31be 9eaf 98bd 4265 e2bd bcd0 43bd
00000390: 6518 bcbd 80ae 413e 16bd 5c3d 69ee 37bd
000003a0: 5a04 2dbe 6664 e63d 8f1d 653b a888 d1bd
000003b0: eef4 d83c baf2 32bb 0688 d4bb 5d85 f23d
000003c0: 63ef 5dbd 01a1 b13b 3ae5 ae3d cf10 8c3c
000003d0: 16b2 d8bc ff87 4abe d430 d23d d9a0 893c
000003e0: 2db3 ddbd 8172 2e3e 2d31 933d 201e cebd
000003f0: f620 e23c 4011 e7bd 8c0a a9bd 1581 ffbd

meta1.node_model.node_mlp_1.2.bias f4 [64]
-0.03722418 0.07613571 0.17442685 0.10613969 -0.044072665 0.0890692 0.105456695 0.009239566
-0.05658074 -0.06507351 -0.030647444 0.06717351 -0.06292442 0.027389243 -0.079056896 -0.089815155
0.07229161 -0.011775643 -0.030543497 0.06606324 0.013784304 -0.03535799 0.06284402 -0.01106314
-0.031199982 0.058972184 0.064616814 -0.058063947 0.04759179 -0.015368768 -0.0137801645 0.060091116
0.025179647 0.060716685 0.023909908 -0.11127176 0.18583372 0.097247876 -0.0067402786 -0.06290866
0.025518766 -0.06542971 0.03361661 0.008467364 -0.07375907 0.08971604 -0.018497473 0.057579264
0.019893654 0.03865197 0.01297558 0.042832132 0.029469337 -0.0819842 0.14658317 0.115814924
-0.0016351778 -0.022065429 0.15677056 0.09755411 0.08259169 -0.056529637 -0.070647106 0.057109565
00000000: 6278 18bd 0aed 9b3d f49c 323e c45f d93d
00000010: 8a85 34bd ea69 b63d aef9 d73d 8c61 173c
00000020: 35c1 67bd 4345 85bd 5910 fbbc 4492 893d
00000030: 85de 80bd 685f e03c 95e8 a1bd 02f1 b7bd
00000040: a00d 943d a0ee 40bc 5b36 fabc 2a4c 873d
00000050: 90d7 613c 8ad3 10bd 5eb4 803d 2c42 35bc
00000060: 1b97 ffbc d18c 713d d255 843d 76d4 6dbd
00000070: 9cef 423d 49cd 7bbc 33c6 61bc 1a22 763d
00000080: 8c45 ce3c 0fb2 783d b6de c33c 73e2 e3bd
00000090: 324b 3e3e e529 c73d 8edd dcbb 41d6 80bd
000000a0: bb0c d13c 0300 86bd 92b1 093d b3ba 0a3c
000000b0: ff0e 97bd 0bbd b73d 0388 97bc 3cd8 6b3d
000000c0: 04f8 a23c 8751 1e3d 8797 543c bf70 2f3d
000000d0: ae69 f13c 55e7 a7bd e619 163e 6030 ed3d
000000e0: 7653 d6ba 8fc2 b4bc 7688 203e 73ca c73d
000000f0: d525 a93d 9f8b 67bd 6eaf 90bd b8eb 693d

meta1.node_model.node_mlp_2.0.weight f4 [64, 73]
0.24533236 0.12234671 0.08899432 0.009610781 0.15061888 -0.05553741 0.054521106 0.1827428
0.031573612 -0.099995464 0.09647948 0.0040414766 -0.000342143 -0.11894105 0.032981787 0.09077996
0.022244409 0.07562733 -0.06387914 0.13224281 0.078105606 -0.00097350276 0.20502205 -0.093608394
0.17646566 -0.018566402 0.054082245 -0.19133165 -0.080050096 -0.11939982 -0.0623172 0.056051522
0.04408499 0.061093807 -0.13002284 0.027049508 -0.09473232 0.16949737 0.0154233 0.08269984
0.11617411 -0.15351035 -0.012384794 0.15915087 -0.07556872 -0.03269129 0.110178635 0.11819543
0.08365086 0.037327074 0.034322266 -0.1469027 -0.016811583 -0.066527404 -0.05365362 0.07224159
0.0049148328 -0.2056947 -0.055362828 0.09758055 0.02108625 -0.04143854 -0.006362057 -0.06145515
-0.029719062 -0.20740773 0.005676218 0.096924335 0.048408844 0.1495998 0.109568164 0.11074486
-0.13762395 -0.03155343 0.005750649 0.13932084 -0.091293566 -0.051980138 0.23992682 0.2213384
-0.09964382 0.09269983 -0.03618464 -0.09255805 0.056281757 0.00735117 0.02409974 0.11630324
0.048442245 0.004530282 0.017738005 0.088513866 -0.039638188 -0.118619874 0.056927357 -0.09913206
-0.11622127 -0.09785089 0.031658817 0.2874343 0.1181438 -0.050843477 -0.060074784 0.177287
-0.03900098 -0.11815098 0.10847094 -0.07754384 0.07310995 0.20376906 -0.02064475 0.029897833
-0.004961195 -0.060918063 0.12612952 0.021748038 -0.12226918 -0.07176112 -0.105369225 0.06849092
-0.009341809 -0.12371661 0.18004583 0.022742698 -0.06021097 -0.15875468 0.013840784 -0.21874015
0.012580905 0.030612987 0.033482764 0.04792358 0.05154124 0.025828814 0.016308837 -0.01216344
-0.083626375 -0.06860811 0.12862551 -0.15879013 0.09114136 -0.031519547 -0.16875881 -0.08015711
0.07986309 0.07853619 -0.2770377 0.23951788 0.090653166 -0.16002843 0.0751221 -0.1524157
-0.16000254 -0.13916495 -0.087620944 -0.019338964 -0.052783176 0.060998254 -0.09261208 0.11719445
-0.042991333 0.13353816 0.0818748 0.14185436 -0.113818556 -0.07597721 -0.12616439 -0.02271341
0.20505491 -0.0018597194 -0.035436496 0.095108435 -0.11644501 0.15044495 -0.016077131 -0.048129655
-0.055604093 0.045434125 0.012527932 -0.09318535 -0.043073364 -0.10772341 0.1834595 -0.054703906
-0.028761685 -0.14421539 -0.09585876 -0.1603554 0.0765712 0.12149321 -0.034817025 0.11613601
-0.026301615 -0.02749297 0.16154943 -0.07870713 -0.118894674 0.15481699 0.08352548 -0.008542781
0.03212996 -0.06632479 0.036719177 -0.015708923 -0.018316688 -0.10888154 -0.17159604 0.04293999
0.09045607 0.1355054 -0.14120294 0.10692081 -0.0025029378 0.095526464 0.17212489 -0.12444476
-0.036612634 -0.033859957 -0.060559627 0.081244014 -0.027127137 -0.11582955 -0.18780224 0.032905966
0.0075898715 -0.06946147 0.19252639 0.052498892 -0.07718132 -0.03188267 -0.0027267926 0.07583887
0.13299036 0.013096912 -0.07881863 -0.02278014 -0.10170936 -0.045869477 0.039101247 0.03813242
-0.07928762 -0.113048 -0.043432202 0.107026905 -0.12230909 0.122408144 -0.19640267 0.06611298
-0.25313985 -0.122406475 -0.103282325 -0.13869767 0.047995236 -0.07205411 0.10852638 0.058254573
00000000: 6838 7b3e e990 fa3d a742 b63d 8a76 1d3c
00000010: d63b 1a3e 327b 63bd 8651 5f3d ee20 3b3e
00000020: 5553 013d 6cca ccbd 0997 c53d 5d6e 843b
00000030: a861 b3b9 5d97 f3bd e917 073d d8ea b93d
00000040: e839 b63c 80e2 9a3d 11d3 82bd a96a 073e
00000050: d5f5 9f3d aa32 7fba 4df1 513e c2b5 bfbd
00000060: 6ab3 343e 9118 98bc 5885 5d3d 72ec 43be
00000070: 4ef1 a3bd e587 f4bd 5240 7fbd 4896 653d
00000080: 7692 343d 803d 7a3d b524 05be ee96 dd3c
00000090: 0503 c2bd b890 2d3e 02b2 7c3c 895e a93d
000000a0: b1ec ed3d d131 1dbe 97e9 4abc 72f8 223e
000000b0: c6c3 9abd 4de7 05bd 56a5 e13d 7210 f23d
000000c0: 2451 ab3d 46e4 183d 8195 0c3d a96d 16be
000000d0: 72b8 89bc 853f 88bd e6c3 5bbd 66f3 933d
000000e0: 9b0c a13b a2a1 52be 22c4 62bd 50d8 c73d
000000f0: 12bd ac3c 75bb 29bd cd78 d0bb 65b8 7bbd
00000100: 6475 f3bc b162 54be 91ff b93b 4480 c63d
00000110: 5a48 463d b130 193e 4665 e03d 33ce e23d
00000120: 4bed 0cbe 2b3e 01bd f16f bc3b 1faa 0e3e
00000130: 1ff8 babd 20e9 54bd 60af 753e 89a6 623e
00000140: 0f12 ccbd 69d9 bd3d 5836 14bd 138f bdbd
00000150: b387 663d 15e2 f03b d16c c53c 6530 ee3d
00000160: 606b 463d c372 943b 4b4f 913c c246 b53d
00000170: a75b 22bd faee f2bd a92c 693d c005 cbbd
00000180: 6b05 eebd 0c66 c8bd adac 013d 972a 933e
00000190: 60f5 f13d 4041 50bd fa10 76bd b98a 353e
000001a0: 7ebf 1fbd 24f9 f1bd 0326 de3d 4ecf 9ebd
000001b0: abba 953d d6a8 503e 2e1f a9bc 4dec f43c
000001c0: 8591 a2bb 3885 79bd 1928 013e f128 b23c
000001d0: 4468 fabd 7ef7 92bd d2cb d7bd f844 8c3d
000001e0: 630e 19bc 225f fdbd ef5d 383e e54e ba3c
000001f0: c79f 76bd 9690 22be 75c4 623c 6bfd 5fbe
00000200: 2420 4e3c 16c8 fa3c 3925 093d 844b 443d
00000210: e81c 533d f396 d33c 1c9a 853c 2a49 47bc
00000220: 4e44 abbd 6982 8cbd 68b6 033e e199 22be
00000230: 52a8 ba3d a41a 01bd 1ccf 2cbe 6929 a4bd
00000240: 428f a33d 95d7 a03d e3d7 8dbe 2d44 753e
00000250: 5ea8 b93d 7ede 23be 9ed9 993d dc12 1cbe
00000260: b5d7 23be 4281 0ebe 9c72 b3bd bf6c 9ebc
00000270: 2c33 58bd 4ed9 793d 67ab bdbd a503 f03d
00000280: ae17 30bd 3abe 083e faad a73d 4542 113e
00000290: b419 e9bd f199 9bbd 3d31 01be 7911 babc
000002a0: eaf9 513e d4c1 f3ba dc25 11bd 36c8 c23d
000002b0: b97a eebd 3e0e 1a3e 30b4 83bc 9a23 45bd
000002c0: 1ec1 63bd 2219 3a3d f541 4d3c f6d7 bebd
000002d0: b26d 30bd 179e dcbd cfdc 3b3e 3411 60bd
000002e0: a09d ebbc 33ad 13be 9951 c4bd 3534 24be
000002f0: 5cd1 9c3d 6fd1 f83d 4c9c 0ebd b7d8 ed3d
00000300: 7c76 d7bc f038 e1bc 376d 253e 3431 a1bd
00000310: 0d7f f3bd 5888 1e3e 680f ab3d 05f7 0bbc
00000320: b49a 033d 4bd5 87bd d966 163d 00b0 80bc
00000330: e10c 96bc 49fd debd dfb6 2fbe d8e1 2f3d
00000340: 0841 b93d edc1 0a3e 8197 10be 4cf9 da3d
00000350: 5408 24bb 61a3 c33d 8241 303e e5dc febd
00000360: 21f7 15bd bdb0 0abd 5f0d 78bd 4363 a63d
00000370: bb39 debc 0b38 edbd 3b4f 40be 68c8 063d
00000380: 75b4 f83b d141 8ebd a325 453e 1409 573d
00000390: 3d11 9ebd 6797 02bd fdb3 32bb 6951 9b3d
000003a0: a02e 083e 6e94 563c a96b a1bd 6b9d babc
000003b0: ff4c d0bd a2e1 3bbd a128 203d be30 1c3d
000003c0: 8c61 a2bd b685 e7bd f7e5 31bd ec30 db3d
000003d0: 307d fabd 1fb1 fa3d c81d 49be 3e66 873d
000003e0: 8c9b 81be 3fb0 fabd af85 d3bd c306 0ebe
000003f0: a796 443d 1b91 93bd 1443 de3d 599c 6e3d

meta1.node_model.node_mlp_2.0.bias f4 [64]
-0.016814766 -0.06729214 -0.06734137 0.011712014 -0.2060241 0.02851416 -0.06820545 0.045795776
-0.014877495 0.028086139 0.09725289 -0.013780211 -0.14845937 -0.17230202 0.0009146615 -0.038152616
0.010913211 0.20380427 -0.045350526 -0.001116002 -0.06340507 -0.03958739 0.15605538 -0.16756134
-0.016361821 0.055661958 -0.021787181 -0.13499993 -0.021954563 0.030556025 0.07623288 -0.05831623
0.007592829 -0.1823594 -0.1279161 -0.011538753 0.067170635 0.0309559 -0.1146788 -0.10075122
-0.062674224 0.003756563 -0.15645377 -0.001714166 -0.197911 -0.10319772 -0.055626687 0.039619975
0.08777005 -0.1838167 -0.059604406 -0.10813394 0.01112709 -0.012884821 -0.05206723 0.05913379
0.022923509 -0.15736648 -0.13394709 -0.011383318 0.061620805 0.02974585 -0.044842485 -0.048270717
00000000: 1fbf 89bc 76d0 89bd 46ea 89bd bfe3 3f3c
00000010: fbf7 52be 8796 e93c 4daf 8bbd 5a94 3b3d
00000020: bdc0 73bc e714 e63c 862c c73d 65c6 61bc
00000030: bc05 18be f16f 30be e5c5 6f3a eb45 1cbd
00000040: 53cd 323c 11b2 503e 79c1 39bd d046 92ba
00000050: 84da 81bd 6326 22bd fbcc 1f3e 3395 2bbe
00000060: 3a09 86bc cbfd 633d 087b b2bc 6c3d 0abe
00000070: 0eda b3bc a150 fa3c fc1f 9c3d 00dd 6ebd
00000080: 44cd f83b 6cbc 3abe 70fc 02be 0a0d 3dbc
00000090: c290 893d 3a97 fd3c b8dc eabd a856 cebd
000000a0: 585b 80bd ab30 763b 6b35 20be dead e0ba
000000b0: 2ea9 4abe 5459 d3bd cfd8 63bd 8e48 223d
000000c0: c9c0 b33d 723a 3cbe c023 74bd 5475 ddbd
000000d0: 664e 363c db1a 53bc 7344 55bd 4636 723d
000000e0: 15ca bb3c ae24 21be 6d29 09be 1981 3abc
000000f0: 1966 7c3d 92ad f33c c1ac 37bd 84b7 45bd

meta1.node_model.node_mlp_2.2.weight f4 [32, 64]
-0.056044307 -0.046877638 0.083194785 -0.107302584 -0.17169487 -0.11559903 -0.12503421 -0.1279376
0.14035657 0.045891467 0.058362074 -0.19303653 -0.050544485 0.07927477 -0.15318741 0.06846965
-0.05643262 0.00278353 -0.018640898 0.07454576 0.043609906 0.13769549 -0.09383105 -0.036841
-0.13000236 -0.0056201653 0.13630868 0.064858444 -0.12519245 0.04590465 0.110719785 -0.23453486
0.00041736066 -0.039733414 0.075891174 0.17750253 0.12705138 0.10008855 0.16494668 0.14008835
-0.075282484 0.0052079335 0.063392095 0.025105838 -0.108699426 -0.10150853 0.061439056 -0.03471755
0.034714043 0.04499902 -0.26900128 0.08718214 -0.07331341 0.17444088 -0.06945101 0.06259491
-0.13956572 -0.117397405 -0.05459595 0.06098813 -0.14298055 0.24023902 -0.020716595 0.063052125
0.05427144 -0.053865023 0.134494 0.19943473 0.22584045 0.16343682 -0.0057062795 -0.13706376
-0.046346195 0.21229002 0.034015246 0.1690287 -0.031841993 -0.08236867 -0.04473146 -0.09856294
-0.109890126 -0.1135706 -0.07785854 0.19076449 0.12586482 0.0019304679 0.08524075 -0.057038706
-0.13411376 -0.015218585 0.025726115 0.13791472 0.15506135 -0.123795494 0.0068071224 -0.1359375
-0.045307808 0.11749553 0.0710739 0.12340264 -0.115830906 -0.06668779 0.11775274 0.05714245
0.011340784 0.1371199 0.18183483 0.03738438 0.11846899 0.038436808 0.06664311 -0.05760979
0.12455466 0.027954219 -0.040496137 0.053831827 0.056872055 0.0011722164 0.16330361 0.23515525
0.11159753 0.18714091 -0.020419542 0.038829155 0.00527506 0.16991548 0.028098274 0.015678292
0.002843986 0.10102999 0.120888494 -0.0065583615 -0.070578985 -0.10811475 0.07153164 0.036679976
0.11342204 0.030616622 -0.009069375 -0.04773412 -0.13220969 0.056960285 0.110978 0.1150733
-0.15093634 0.26626745 0.039260715 -0.039774485 -0.1501042 0.070704944 0.06967593 0.018712785
-0.023012504 -0.040427893 0.061772436 -0.05135553 0.16465849 0.17760552 -0.034977596 0.0904455
-0.026406182 0.02885252 0.10832124 0.13400643 0.14907435 0.13853228 0.08672325 0.11614024
0.016370397 -0.2235749 0.101635344 0.08196423 -0.06619325 -0.038240273 0.09723759 -0.20578466
-0.1486965 -0.12403248 -0.107077315 -0.01853567 -0.032693062 0.049900156 -0.01027616 -0.061261438
-0.023334613 -0.12093504 -0.1593775 0.009360504 -0.020447085 0.018229084 0.05564842 0.051543392
-0.099992104 -0.11215241 0.033564813 -0.15702166 0.01422249 -0.16450652 -0.07087315 0.1502313
0.05218281 -0.051381137 0.013598918 0.1154266 -0.079288274 0.08573607 0.019744517 0.05119652
0.01284876 -0.034874395 0.116161 -0.19680353 0.08882221 0.008091483 0.101726085 0.10873139
0.030460488 -0.11615798 -0.11780721 -0.003535241 -0.08521411 0.07180511 -0.2053086 0.04672043
-0.03253248 -0.18846957 -0.109345146 0.06393461 0.037244905 -0.043312684 0.07838948 0.11654585
0.022446865 0.049220424 -0.08063764 0.08243343 -0.013444745 -0.0352824 -0.089712545 -0.03887287
-0.15539172 -0.14320704 -0.058345187 -0.21103571 -0.029024102 0.0037992727 0.00027372432 -0.11062926
0.039794732 0.0061440845 -0.014014315 -0.08191788 -0.16470525 -0.058894973 -0.099166274 0.07850358
00000000: b78e 65bd c402 40bd 0762 aa3d 75c1 dbbd
00000010: c8d0 2fbe 2fbf ecbd f808 00be 1302 03be
00000020: a2b9 0f3e b1f8 3b3d 120d 6f3d 5eab 45be
00000030: bc07 4fbd d05a a23d 29dd 1cbe d139 8c3d
00000040: e425 67bd e26b 363b ccb4 98bc 73ab 983d
00000050: 4da0 323d 0c00 0d3e 7e2a c0bd 97e6 16bd
00000060: 571f 05be 5d29 b8bb 8194 0b3e 81d4 843d
00000070: 7332 00be 8406 3c3d 0ec1 e23d e829 70be
00000080: 33d1 da39 81bf 22bd d56c 9b3d 39c3 353e
00000090: c219 023e 3afb cc3d c8e7 283e 5273 0f3e
000000a0: b42d 9abd 50a7 aa3b b7d3 813d c2aa cd3c
000000b0: ce9d debd b4e3 cfbd 85a7 7b3d fd33 0ebd
000000c0: 5030 0e3d e450 383d 89ba 89be 8d8c b23d
000000d0: 5725 96bd a1a0 323e 553c 8ebd c331 803d
000000e0: 51ea 0ebe 0d6e f0bd 01a0 5fbd b0ce 793d
000000f0: 7e69 12be 3801 763e d9b5 a9bc 7921 813d
00000100: bb4b 5e3d 92a1 5cbd ccb8 093e 9e38 4c3e
00000110: b842 673e fb5b 273e befb babb 715a 0cbe
00000120: 82d5 3dbd 8e62 593e 9253 0b3d dc15 2d3e
00000130: c06c 02bd e8b0 a8bd 5638 37bd 5edb c9bd
00000140: 130e e1bd b497 e8bd 4c74 9fbd c457 433e
00000150: b5e2 003e c107 fd3a b492 ae3d 6ba1 69bd
00000160: 1e55 09be 5f57 79bc 93bf d23c 8439 0d3e
00000170: 67c8 1e3e 7e88 fdbd 480e df3b 3333 0bbe
00000180: ae94 39bd 7fa1 f03d 318f 913d 86ba fc3d
00000190: c138 edbd 9c93 88bd 5928 f13d 340e 6a3d
000001a0: b2ce 393c 2969 0c3e e932 3a3e 5d20 193d
000001b0: df9f f23d ea6f 1d3d 2f7c 883d 3ef8 6bbd
000001c0: 8316 ff3d 3f00 e53c 47df 25bd c37e 5c3d
000001d0: acf2 683d 0ea5 993a 1039 273e 8acc 703e
000001e0: 3f8d e43d dea1 3f3e e246 a7bc 520b 1f3d
000001f0: 69da ac3b 53fe 2d3e 5a2e e63c c36f 803c
00000200: 2b62 3a3b d0e8 ce3d 6394 f73d 86e7 d6bb
00000210: b78b 90bd 446b ddbd 2e7f 923d be3d 163d
00000220: d149 e83d b6cf fa3c b797 14bc da84 43bd
00000230: fa61 07be 304f 693d 6f48 e33d 8dab eb3d
00000240: 0e8f 1abe 3554 883e d8cf 203d 92ea 22bd
00000250: eab4 19be c1cd 903d 41b2 8e3d 8e4b 993c
00000260: b884 bcbc b897 25bd 1805 7d3d 2d5a 52bd
00000270: 3c9c 283e 39de 353e ab44 0fbd 7e3b b93d
00000280: c751 d8bc 1f5c ec3c 87d7 dd3d fb38 093e
00000290: f2a6 183e 68db 0d3e f69b b13d efda ed3d
000002a0: 361b 863c d2f0 64be 3126 d03d dddc a73d
000002b0: 5490 87bd d5a1 1cbd 8024 c73d 37b9 52be
000002c0: e543 18be be04 febd 5a4b dbbd 1ed8 97bc
000002d0: 29e9 05bd 1b64 4c3d 575d 28bc 46ed 7abd
000002e0: 3b28 bfbc caac f7bd db33 23be cd5c 193c
000002f0: a580 a7bc 2955 953c 99ef 633d 2a1f 533d
00000300: a9c8 ccbd 2ab0 e5bd 427b 093d 49ca 20be
00000310: 7205 693c 6674 28be f125 91bd 3cd6 193e
00000320: a4bd 553d 0775 52bd ffcd 5e3c c864 ec3d
00000330: e461 a2bd 6596 af3d 41bf a13c 71b3 513d
00000340: 9b83 523c 74d8 0ebd d2e5 ed3d dd86 49be
00000350: 6be8 b53d 2492 043c c455 d03d 90ae de3d
00000360: 4688 f93c 3ce4 edbd e844 f1bd 80af 67bb
00000370: bc84 aebd 8f0e 933d 6b3c 52be ec5d 3f3d
00000380: c740 05bd 2bfe 40be 59f0 dfbd 26f0 823d
00000390: 1d8e 183d a468 31bd aa8a a03d 97af ee3d
000003a0: 7de2 b73c 5b9b 493d 5925 a5bd dcd2 a83d
000003b0: 5947 5cbc 4784 10bd 36bb b7bd 2939 1fbd
000003c0: 021f 1fbe dea4 12be 5dfb 6ebd bf19 58be
000003d0: f4c3 edbc 38fd 783b a882 8f39 9891 e2bd
000003e0: cdff 223d 5154 c93b 4c9c 65bc 90c4 a7bd
000003f0: 7ea8 28be db3b 71bd b017 cbbd 7cc6 a03d

meta1.node_model.node_mlp_2.2.bias f4 [32]
0.04208561 -0.08268897 0.037644 -0.10065721 -0.0208517 -0.052891623 -0.11628072 -0.04339581
-0.01700166 0.09212262 -0.05351766 -0.03220134 0.015017032 -0.029746806 0.076296024 -0.11714544
-0.062900856 0.013315113 -0.036027197 -0.05313619 -0.15114133 -0.0433016 -0.06860882 0.056879483
-0.012763296 0.13244069 0.038192805 0.0072896383 -0.109199226 0.050617773 -0.16962299 0.11330214
00000000: f661 2c3d d658 a9bd 9830 1a3d 5e25 cebd
00000010: 2fd1 aabc e3a4 58bd 9624 eebd cebf 31bd
00000020: 1147 8bbc c9aa bc3d 5535 5bbd 8de5 03bd
00000030: ff09 763c 93af f3bc 1741 9c3d f3e9 efbd
00000040: 2ad2 80bd a227 5a3c 4191 13bd 55a5 59bd
00000050: cbc4 1abe 055d 31bd c882 8cbd 76fa 683d
00000060: 251d 51bc 889e 073e 0f70 1c3d ebdd ee3b
00000070: d8a3 dfbd 9554 4f3d a6b1 2dbe f40a e83d
